model/final_model.onnx (onnx, 52320 bytes, 7 tensors)

preprocess.0.bias f4 [32]
00000000: a680 733e 5817 813e d973 eb3d f700 273d
00000010: 060e 0b3b 9575 0d3e 0ab1 5cbe 3339 7bbe
00000020: 3a80 2d3e 3194 6d3e 5692 7fbe 870f 343e
00000030: e33c 5a3e 5c59 7cbe b911 50be c1b5 5c3b
00000040: 76d1 37be d60d 723e ff3e 7e3e 5777 77be
00000050: 100d 9abd 4cf9 c13d 13ad 5b3e c014 0bbe
00000060: a80e 5b3e 22d8 813e ad6b 6f3e 7606 76be
00000070: 87b4 19be ddd4 84bc 6679 743e 653e 723e
0.23779544 0.25213122 0.114967056 0.040772405 0.0021218075 0.13814385 -0.2155191 -0.24533539
0.16943446 0.23201062 -0.24958166 0.17584048 0.21312289 -0.24643463 -0.2031926 0.003367767
-0.17950997 0.2363809 0.24828719 -0.24166618 -0.07522023 0.09471378 0.21452741 -0.13582134
0.2139231 0.2536021 0.23380919 -0.24025902 -0.15010272 -0.016214782 0.23874435 0.23656614

leaky_relu_bias f4 [32]
00000000: 19da 5f3e 3076 853e 91e2 0a3f 979f 1b3f
00000010: 31c4 4fbf 1173 833f 42b7 1640 3ba2 b13e
00000020: 6f2c 953d da5f 4abd 71f9 06c0 8cd2 983f
00000030: f94c ad3f 88b4 91be 6848 e43e 7d94 aa3c
00000040: 0bc8 a8be 7ecf 7e3f f6b6 263f 52c9 8ebf
00000050: f86f 9b3f 2071 55be 5602 cc3e 2cd5 91be
00000060: 799b cbbf f35b 3c3f ce4f 57bf 9d29 bcbd
00000070: 9b95 bbbe 6216 e5be 03be b5be 20b1 a13f
0.21860541 0.26066732 0.5425196 0.6079039 -0.8115874 1.026949 2.3549352 0.34694085
0.07283866 -0.049407817 -2.1089747 1.1939254 1.3539115 -0.28458047 0.44586492 0.020822758
-0.3296512 0.9953536 0.65122926 -1.1155188 1.2143545 -0.20843935 0.39845532 -0.2848295
-1.5906821 0.73577803 -0.8410615 -0.091876246 -0.36637577 -0.4474364 -0.3549653 1.2632179

leaky_relu_1_bias f4 [32]
00000000: a4e8 5c3f d2db 86be 2aa7 43bf 7ad0 863f
00000010: 4497 163a ad5b 0f3f c79a 153c 7229 c4be
00000020: c0ab 01bf cd38 0fbf 8b4f f5be 5c6c 1bbe
00000030: b98d c8be 3b90 2dbe 088d a63e d4f7 603f
00000040: 3298 78bf bdf4 803d f78a 4cbf a2a6 aabf
00000050: 8679 29bd f5de 18bf a33c 383e 8943 243d
00000060: 011a 713f 07d8 79bb 7eb9 fcbf 990c be3e
00000070: 6f9c fb3e 840d 4dbf 7fe4 6cbd d275 2f3e
0.8629248 -0.26339585 -0.7642695 1.0532372 0.0005744586 0.5599926 0.00913114 -0.3831287
-0.50652695 -0.55946046 -0.4791225 -0.15178055 -0.39170626 -0.16949551 0.32529473 0.87878156
-0.9710723 0.0629668 -0.79899544 -1.3332102 -0.04137566 -0.59715205 0.17991881 0.04010347
0.94180304 -0.0038123147 -1.9744108 0.37118986 0.49142787 -0.8009875 -0.0578351 0.17134789

leaky_relu_2_bias f4 [32]
00000000: 4183 04bf 9388 613f 9796 8d3c ef3a 0dbf
00000010: 5094 f6be 3e2b 7a3f 5384 a2bd 4aaf c3be
00000020: 1a24 983d 9fad b7bb ccd1 d5be 40c4 afbe
00000030: 1886 773f 4de0 44be 88e9 11bf 0f00 693e
00000040: a42b 013e 8be3 c7be f75b 4a3f d1e4 f03d
00000050: 507d e0be 0e8f ac3e 95b5 743f 50fe 863c
00000060: 3b9c f9be 65fb 1d3f f0b4 bb3c f1be 07bf
00000070: d1ce 10be 141b 503f a665 c13e a989 f03e
-0.5176278 0.8809902 0.01728372 -0.5516805 -0.48160028 0.9772223 -0.07935395 -0.38219672
0.07428761 -0.005605414 -0.41761625 -0.34329414 0.96688986 -0.19226189 -0.56996965 0.22753929
0.12614304 -0.3904079 0.7904658 0.11762393 -0.43845606 0.33702892 0.9558957 0.016478688
-0.48752007 0.6171172 0.022913426 -0.5302573 -0.14141394 0.8129132 0.37772864 0.46980026

leaky_relu_3_bias f4 [64]
00000000: 9b0e 883e 44f9 be3e 1d0b 633c 11fc 20bd
00000010: b91e 3c3d 8fe0 a43e 31a6 3b3f d918 433e
00000020: 5f8a 9e3d ecd3 f13d 9d51 163e 14f1 8c3f
00000030: 1aa6 26bf f8d6 c7be 63f6 463e cd51 83bf
00000040: 4a0e e5be fe3c 173e f3a5 f73e 5fdf b1bd
00000050: 6067 0a3f f3ff efbe c22e fc3d 4646 87bf
00000060: 6b66 0b3f ff01 71bf 8025 413c bd13 1abd
00000070: 945c ec3e 63c8 7b3e a04a 6ebf a759 b13e
00000080: 7692 3c3f ad02 9dbe 3d72 073e 0f0f 6bbf
00000090: d11f 00c0 cc9a 35be 39bc 6dbf 191a 763f
000000a0: 0dc0 ffbe 8c89 0fbf 4b77 0fbf c7c4 36bf
000000b0: 8ae0 71bd 3322 efbe 047e 8a3d 65d8 263f
000000c0: df49 d8be 8354 d13e ccff ff3e ff42 cf3d
000000d0: 7713 20bf 8514 c9bd 679a 05bd d89a c3bf
000000e0: 5d0c 81bf 3ef7 f4be 3812 d4be 6265 a8bd
000000f0: 878e b1bd 23b8 71bf 4796 93be b174 32bf
0.26573643 0.3729955 0.01385763 -0.03930289 0.045927737 0.32202575 0.7330046 0.19052447
0.07741236 0.11807999 0.1467957 1.1011071 -0.650972 -0.39031196 0.19429927 -1.0259339
-0.44737464 0.1476936 0.48368797 -0.08685183 0.5406399 -0.4687496 0.12313606 -1.0568321
0.5445315 -0.9414367 0.011788726 -0.03761648 0.46164382 0.2458816 -0.9308262 0.34638712
0.7366098 -0.30666104 0.13227172 -0.9181985 -2.001942 -0.17734832 -0.9286533 0.9613357
-0.4995121 -0.56069255 -0.560414 -0.7139401 -0.059052028 -0.4670578 0.06762317 0.6517394
-0.4224386 0.4088479 0.49999845 0.101202 -0.625297 -0.09818367 -0.032617953 -1.528163
-1.0081898 -0.4784488 -0.4142015 -0.08222462 -0.08669763 -0.94421595 -0.2882559 -0.69709307

leaky_relu_4_bias f4 [64]
00000000: e09b a5bf a149 80be c549 0ebf 031d 54bd
00000010: 82ca 48bf 0b2c 6ebe a28c 5b3e e0f0 94bf
00000020: 5461 003f a278 fe3d 6863 263f 2a45 90bf
00000030: 8b39 c3be e436 84be 7ccf 733f 8b22 023f
00000040: 4f08 d83e ec01 b5bf 7b29 1fbe a801 d1bd
00000050: fe28 fa3d 0046 54bf f13a e0be 39fb 9e3e
00000060: e5a8 333f 74ce 77bc 8dff 51bf 79c2 3ebf
00000070: e270 3bbf 8743 1cbf 6b26 94bf ee8e c1bf
00000080: 86d7 99be 8e05 3b3e c5e5 863d c834 41bf
00000090: 14b5 593f 828b 5abf 30e2 65be 17b5 cd3f
000000a0: 3e1b 793f af40 393f b332 11be 3013 543d
000000b0: 7d04 063f dd45 a23d 4113 613e 2f13 f9be
000000c0: e389 ec3e 9dad 0cbf a4ae db3c 3983 853f
000000d0: 271d 25be dded 0f3f db06 09bf 5f10 82be
000000e0: 88f0 92bf c207 1dbf 39e8 af3f 347a 81bf
000000f0: 0a21 e93e fa75 7c3c c45b 26bf c69d 123e
-1.2938194 -0.25056174 -0.55581313 -0.05178548 -0.78434 -0.23258989 0.21440366 -1.1636009
0.5014851 0.12425353 0.6499543 -1.1271107 -0.3812984 -0.25823128 0.9523847 0.5083396
0.4219384 -1.4141212 -0.15543167 -0.10205394 0.1221485 -0.8291931 -0.4379497 0.31051043
0.7017959 -0.015124906 -0.82030565 -0.7451549 -0.7321912 -0.6104054 -1.1574224 -1.5121744
-0.30047244 0.18263838 0.06586794 -0.7547116 0.8504193 -0.8536912 -0.22449565 1.6070889
0.97307193 0.72364324 -0.14179496 0.05177611 0.523506 0.079234816 0.21980001 -0.48647448
0.4619895 -0.5495241 0.026816674 1.0430671 -0.16124402 0.56222326 -0.53526086 -0.25403115
-1.1479654 -0.6133996 1.3742744 -1.0115418 0.4553302 0.015408987 -0.64983773 0.14317998

leaky_relu_5_bias f4 [64]
00000000: 799f 97be 2b22 27bf e14e 92bf 2b98 d53e
00000010: ea85 bc3e bb22 2abf dcff a93d 04a0 76bd
00000020: c49e 803e ce19 c73e 062b cebd f87f 7a3e
00000030: 67d6 5f3f 27d2 92bd 46a0 583e 65d6 a93c
00000040: daa5 06be 685a e43d 2cef eaba 1e3b bb3d
00000050: e8cd 1bbf 5960 4dbd 743a ea3e add7 f13c
00000060: 5461 633e ddac 7c3f 0f95 113f 089a 28be
00000070: 63bf 4a3f 4d30 17bf a538 783f d2d9 22bd
00000080: eae5 bcbe d03a 3e3f 4c3c d93e 6713 fe3e
00000090: 6a1e 35bf 3c48 d0be db8b 773e 1d0a 03bf
000000a0: 8ebd d8be 4901 fb3e db97 33bd 74a2 d93c
000000b0: 4d39 fbbd a969 033e 5aab ba3e 6e66 1b3f
000000c0: 56ba 83be bed5 1ebd a754 88bf e9b0 663f
000000d0: 9c80 8e3f 6cc4 aa3d 3ac5 563e e665 0fbf
000000e0: 9039 7fbf 7066 713e c30c f93d ac28 8f3d
000000f0: 8089 913e 3a0c 873e e317 a5bd a77a 273f
-0.29613855 -0.6528651 -1.1430322 0.41717657 0.36820918 -0.66459244 0.083007544 -0.060211197
0.2512113 0.38886875 -0.100668 0.24462879 0.87436527 -0.0716899 0.2115489 0.020732114
-0.13149205 0.11150056 -0.0017924062 0.09142135 -0.60861063 -0.050140712 0.4574772 0.029521788
0.22205096 0.9870127 0.5686807 -0.16465008 0.7919828 -0.59058076 0.9696143 -0.03975851
-0.3689416 0.7430849 0.42428815 0.49624178 -0.70749533 -0.4068011 0.24174444 -0.51187307
-0.4233212 0.49024418 -0.043845993 0.026566721 -0.12266789 0.12833275 0.36458856 0.6070317
-0.257281 -0.03877806 -1.0650834 0.90113693 1.1132998 0.08338246 0.20973673 -0.5601486
-0.9969721 0.23574233 0.12160637 0.069901794 0.28425217 0.26376516 -0.08061197 0.6542153
